Script contains unsafe elements:
 - Disallowed function call detected: eval
device: cuda
model loaded Sequential(
  (0): StandardUnet(
    (unet_backbone): UNet(
      (l_conv): ModuleList(
        (0): ConvPass(
          (conv_pass): Sequential(
            (0): Conv3d(1, 16, kernel_size=(3, 3, 3), stride=(1, 1, 1))
            (1): ReLU()
            (2): Conv3d(16, 16, kernel_size=(3, 3, 3), stride=(1, 1, 1))
            (3): ReLU()
            (4): Conv3d(16, 16, kernel_size=(3, 3, 3), stride=(1, 1, 1))
            (5): ReLU()
          )
        )
        (1): ConvPass(
          (conv_pass): Sequential(
            (0): Conv3d(16, 96, kernel_size=(3, 3, 3), stride=(1, 1, 1))
            (1): ReLU()
            (2): Conv3d(96, 96, kernel_size=(3, 3, 3), stride=(1, 1, 1))
            (3): ReLU()
            (4): Conv3d(96, 96, kernel_size=(3, 3, 3), stride=(1, 1, 1))
            (5): ReLU()
          )
        )
        (2): ConvPass(
          (conv_pass): Sequential(
            (0): Conv3d(96, 576, kernel_size=(3, 3, 3), stride=(1, 1, 1))
            (1): ReLU()
            (2): Conv3d(576, 576, kernel_size=(3, 3, 3), stride=(1, 1, 1))
            (3): ReLU()
            (4): Conv3d(576, 576, kernel_size=(3, 3, 3), stride=(1, 1, 1))
            (5): ReLU()
          )
        )
        (3): ConvPass(
          (conv_pass): Sequential(
            (0): Conv3d(576, 3456, kernel_size=(3, 3, 3), stride=(1, 1, 1))
            (1): ReLU()
            (2): Conv3d(3456, 3456, kernel_size=(3, 3, 3), stride=(1, 1, 1))
            (3): ReLU()
            (4): Conv3d(3456, 3456, kernel_size=(3, 3, 3), stride=(1, 1, 1))
            (5): ReLU()
          )
        )
      )
      (l_down): ModuleList(
        (0-2): 3 x Downsample(
          (down): MaxPool3d(kernel_size=(2, 2, 2), stride=(2, 2, 2), padding=0, dilation=1, ceil_mode=False)
        )
      )
      (r_up): ModuleList(
        (0): ModuleList(
          (0-2): 3 x Upsample(
            (up): Upsample(scale_factor=(2.0, 2.0, 2.0), mode='nearest')
          )
        )
      )
      (r_conv): ModuleList(
        (0): ModuleList(
          (0): ConvPass(
            (conv_pass): Sequential(
              (0): Conv3d(112, 16, kernel_size=(3, 3, 3), stride=(1, 1, 1))
              (1): ReLU()
              (2): Conv3d(16, 16, kernel_size=(3, 3, 3), stride=(1, 1, 1))
              (3): ReLU()
            )
          )
          (1): ConvPass(
            (conv_pass): Sequential(
              (0): Conv3d(672, 96, kernel_size=(3, 3, 3), stride=(1, 1, 1))
              (1): ReLU()
              (2): Conv3d(96, 96, kernel_size=(3, 3, 3), stride=(1, 1, 1))
              (3): ReLU()
            )
          )
          (2): ConvPass(
            (conv_pass): Sequential(
              (0): Conv3d(4032, 576, kernel_size=(3, 3, 3), stride=(1, 1, 1))
              (1): ReLU()
              (2): Conv3d(576, 576, kernel_size=(3, 3, 3), stride=(1, 1, 1))
              (3): ReLU()
            )
          )
        )
      )
    )
    (final_conv): Conv3d(16, 8, kernel_size=(1, 1, 1), stride=(1, 1, 1), padding=valid)
  )
  (1): Sigmoid()
)
Script contains unsafe elements:
 - Disallowed function call detected: eval
device: cuda
model loaded Sequential(
  (0): StandardUnet(
    (unet_backbone): UNet(
      (l_conv): ModuleList(
        (0): ConvPass(
          (conv_pass): Sequential(
            (0): Conv3d(1, 16, kernel_size=(3, 3, 3), stride=(1, 1, 1))
            (1): ReLU()
            (2): Conv3d(16, 16, kernel_size=(3, 3, 3), stride=(1, 1, 1))
            (3): ReLU()
            (4): Conv3d(16, 16, kernel_size=(3, 3, 3), stride=(1, 1, 1))
            (5): ReLU()
          )
        )
        (1): ConvPass(
          (conv_pass): Sequential(
            (0): Conv3d(16, 96, kernel_size=(3, 3, 3), stride=(1, 1, 1))
            (1): ReLU()
            (2): Conv3d(96, 96, kernel_size=(3, 3, 3), stride=(1, 1, 1))
            (3): ReLU()
            (4): Conv3d(96, 96, kernel_size=(3, 3, 3), stride=(1, 1, 1))
            (5): ReLU()
          )
        )
        (2): ConvPass(
          (conv_pass): Sequential(
            (0): Conv3d(96, 576, kernel_size=(3, 3, 3), stride=(1, 1, 1))
            (1): ReLU()
            (2): Conv3d(576, 576, kernel_size=(3, 3, 3), stride=(1, 1, 1))
            (3): ReLU()
            (4): Conv3d(576, 576, kernel_size=(3, 3, 3), stride=(1, 1, 1))
            (5): ReLU()
          )
        )
        (3): ConvPass(
          (conv_pass): Sequential(
            (0): Conv3d(576, 3456, kernel_size=(3, 3, 3), stride=(1, 1, 1))
            (1): ReLU()
            (2): Conv3d(3456, 3456, kernel_size=(3, 3, 3), stride=(1, 1, 1))
            (3): ReLU()
            (4): Conv3d(3456, 3456, kernel_size=(3, 3, 3), stride=(1, 1, 1))
            (5): ReLU()
          )
        )
      )
      (l_down): ModuleList(
        (0-2): 3 x Downsample(
          (down): MaxPool3d(kernel_size=(2, 2, 2), stride=(2, 2, 2), padding=0, dilation=1, ceil_mode=False)
        )
      )
      (r_up): ModuleList(
        (0): ModuleList(
          (0-2): 3 x Upsample(
            (up): Upsample(scale_factor=(2.0, 2.0, 2.0), mode='nearest')
          )
        )
      )
      (r_conv): ModuleList(
        (0): ModuleList(
          (0): ConvPass(
            (conv_pass): Sequential(
              (0): Conv3d(112, 16, kernel_size=(3, 3, 3), stride=(1, 1, 1))
              (1): ReLU()
              (2): Conv3d(16, 16, kernel_size=(3, 3, 3), stride=(1, 1, 1))
              (3): ReLU()
            )
          )
          (1): ConvPass(
            (conv_pass): Sequential(
              (0): Conv3d(672, 96, kernel_size=(3, 3, 3), stride=(1, 1, 1))
              (1): ReLU()
              (2): Conv3d(96, 96, kernel_size=(3, 3, 3), stride=(1, 1, 1))
              (3): ReLU()
            )
          )
          (2): ConvPass(
            (conv_pass): Sequential(
              (0): Conv3d(4032, 576, kernel_size=(3, 3, 3), stride=(1, 1, 1))
              (1): ReLU()
              (2): Conv3d(576, 576, kernel_size=(3, 3, 3), stride=(1, 1, 1))
              (3): ReLU()
            )
          )
        )
      )
    )
    (final_conv): Conv3d(16, 8, kernel_size=(1, 1, 1), stride=(1, 1, 1), padding=valid)
  )
  (1): Sigmoid()
)

------------------------------------------------------------
Sender: LSF System <lsfadmin@h10u20>
Subject: Job 142719054: <pred> in cluster <Janelia> Exited

Job <pred> was submitted from host <e10u03> by user <zouinkhim> in cluster <Janelia> at Fri Jan 10 10:38:29 2025
Job was executed on host(s) <10*h10u20>, in queue <gpu_tesla>, as user <zouinkhim> in cluster <Janelia> at Fri Jan 10 10:38:29 2025
…
